model/keypoint_classifier/keypoint_classifier.tflite (tflite, 6808 bytes, 6 tensors)

sequential/dense/BiasAdd/ReadVariableOp f4 [20]
0	0xbecfb86f	-0.405704
1	0xbf574fbd	-0.84106046
2	0xbec81e86	-0.39085788
3	0xbf3f0d2b	-0.7462947
4	0xbea36a17	-0.31916878
5	0xbf134a19	-0.5753494
6	0x3efb6c54	0.49106085
7	0xbf2a345e	-0.66486156
8	0xbf86ff96	-1.0546749
9	0xbee89f30	-0.4543395
10	0xbe977757	-0.29583237
11	0xbeb163a3	-0.3464633
12	0xbf63db15	-0.8900617
13	0xbf12a5f1	-0.57284456
14	0xbedee434	-0.4353348
15	0xbf056de5	-0.5212081
16	0xbf4809a2	-0.781397
17	0xbf8a5e6f	-1.0810069
18	0xbf50f356	-0.816213
19	0xbf452f84	-0.7702563

sequential/dense_2/BiasAdd/ReadVariableOp f4 [10]
0	0x3d66d4c5	0.056355257
1	0x3d275e8e	0.04086166
2	0x3e35894b	0.17728154
3	0x3e00d89d	0.12582631
4	0x3caca9a1	0.02107698
5	0x3ec552a7	0.3853962
6	0xbe76e39d	-0.24110265
7	0xbef08a2f	-0.46980426
8	0x3e2b3ae7	0.16721688
9	0xbe326ea4	-0.17425019

sequential/dense_1/BiasAdd/ReadVariableOp f4 [10]
0	0x3f3be003	0.7338869
1	0x3b1aa910	0.0023599304
2	0x3f0a51c0	0.5403099
3	0x3e8ee7f7	0.2791135
4	0x3f0a19f1	0.53945833
5	0x3ed44dfd	0.4146575
6	0x3f3b5448	0.7317548
7	0xbd13b138	-0.03605768
8	0x3e27cad7	0.16385971
9	0x3f28973f	0.65855783

sequential/dense/MatMul f4 [20, 42]
0	0xbd0b01b0	-0.033937156
1	0xbe74506c	-0.23858804
2	0x3e61e4cd	0.22059937
3	0x3ee76a75	0.45198408
4	0x3da5fbff	0.08104705
5	0x3e76bff0	0.24096656
6	0x3d361891	0.044457022
7	0x3e29515a	0.1653494
8	0x3d83d5ef	0.06437289
9	0x3e424d29	0.18974747
10	0xbd00e811	-0.031471316
11	0x3d420cd8	0.04737553
12	0x3cdfd010	0.027320892
13	0x3d56d837	0.052452292
14	0x3d18cd06	0.0373049
15	0x3cf273a5	0.02959616
16	0x3cd0f595	0.025507728
17	0x3ba0b7f3	0.004904741
18	0xbdaa340e	-0.0831071
19	0x3d58e058	0.052948326
20	0x3d075225	0.033037324
21	0x3cb33b62	0.021878902
22	0xbe8f2fef	-0.27966258
23	0x3c4e148e	0.012578143
24	0xbef31058	-0.47473407
25	0xbe5ec118	-0.21753347
26	0x3dc718e6	0.09721546
27	0x3dbc39b1	0.09190691
28	0x3dfc2b6b	0.12312969
29	0xbb67847f	-0.0035326777
30	0xbdfc253b	-0.12311789
31	0xbf272e20	-0.65304756
32	0xbf755296	-0.9582914
33	0xbf80a85d	-1.005138
34	0x3e7a0042	0.24414161
35	0x3e17d125	0.14825876
36	0x3e3fb1d7	0.18720184
37	0x3e1e1b7f	0.15440176
38	0x3d888970	0.06666839
39	0x3ddde13c	0.10833976
40	0x3d3dde4e	0.046354584
41	0xbe2bc62f	-0.1677482
42	0x3ddc03a0	0.10742879
43	0x3e23b92c	0.15988606
44	0xbed4ce20	-0.4156351
45	0xbe9eed19	-0.31040266
46	0xbdcd85d5	-0.10035292
47	0xbe4906a4	-0.1963144
48	0xbde9ee59	-0.11422414
49	0xbde56b47	-0.11202102
50	0xbde8bfbf	-0.11364698
51	0xbf82cad6	-1.0218151
52	0xbe80e046	-0.25171107
53	0xbdd4de27	-0.10393935
54	0xbd7738dd	-0.060356963
55	0x3cea8f56	0.028632801
56	0x3e1918c4	0.14950854
57	0x3dad39fd	0.08458326
58	0x3e3b2eb7	0.18279539
59	0x3db17e00	0.08666611
60	0xbeab519d	-0.33460703
61	0xbdaf6609	-0.085643835
62	0xbdc4dc06	-0.09612279
63	0xbb16a9e7	-0.0022989453
64	0x3d63eb16	0.055644117
65	0xbceb7dfd	-0.0287466
66	0x3c25efd3	0.010127979
67	0xbd89ec69	-0.06734545
68	0xbe3aa828	-0.18228209
69	0xbd3a63e9	-0.045505438
70	0x3d1d3df7	0.038389172
71	0x3ca6258b	0.020281574
72	0x3dcaf2cb	0.0990959
73	0xbce91861	-0.028454008
74	0x3cbd9b8f	0.023145465
75	0xbdc7fea9	-0.097653694
76	0xbcdfd681	-0.027323963
77	0xbc6bd5e7	-0.01439426
78	0x3d0abc39	0.03387091
79	0x3dfd84b5	0.123788275
80	0x3d9edd70	0.077570796
81	0x3e1bcecb	0.15215604
82	0x3ce28468	0.027651027
83	0x3e12f3e1	0.14350845
84	0x3e325186	0.17413911
85	0xbe5eb512	-0.2174876
86	0x3c13bc8f	0.009017124
87	0x3ca248cb	0.019810101
88	0xbe536c96	-0.20646891
89	0x3ca45bc8	0.020063296
90	0xbec12cf3	-0.37729606
91	0x3dd2a31f	0.10285019
92	0xbf056095	-0.521005
93	0x3e81d52a	0.25357944
94	0x3e14e534	0.14540559
95	0x3e18c79d	0.14919896
96	0x3d650abe	0.055918448
97	0x3d3a5dfd	0.04549979
98	0xbbc0c715	-0.0058831074
99	0xbd5a7915	-0.05333813
100	0xbd3f647f	-0.0467267
101	0xbdd80f3f	-0.10549783
102	0x3e176a0f	0.14786552
103	0x3e3297bc	0.17440695
104	0x3c13959b	0.009007837
105	0x3e06c4e9	0.13161053
106	0x3e5a3b0d	0.21311589
107	0x3dc9b4d0	0.0984894
108	0x3ef6aa3c	0.48176754
109	0xbd575b08	-0.05257705
110	0xbcbbbb44	-0.022916444
111	0x3e586c5f	0.2113509
112	0xbd898a97	-0.06715887
113	0x3db81f83	0.089903854
114	0x3e4ac80a	0.19802871
115	0xbdff6248	-0.124699175
116	0x3f0a618f	0.5405511
117	0xbf06acca	-0.52607405
118	0xbe292d85	-0.1652127
119	0x3e812794	0.25225508
120	0xbe0fef54	-0.1405614
121	0x3dd0365f	0.101666205
122	0xbc9ebfb0	-0.019378513
123	0xbf010049	-0.5039106
124	0x3ed05bbf	0.40694997
125	0xbf7bfc60	-0.9843197
126	0xbe7fd8dc	-0.24985069
127	0x3e85ba08	0.26118493
128	0xbe62e2f4	-0.22156888
129	0x3e92148f	0.2853131
130	0x3e2ffd91	0.17186572
131	0x3d9bc1e2	0.076053396
132	0x3dc726ff	0.09724235
133	0x3d932604	0.07184985
134	0x3e91191d	0.28339472
135	0x3d4e363d	0.050344694
136	0x3ca10c98	0.019659325
137	0xbaf92126	-0.0019007071
138	0x3cc08c73	0.023504471
139	0x3d4101ac	0.047120735
140	0xbd49fae5	-0.049311537
141	0x3e052596	0.13002619
142	0xbcbb33ca	-0.022851843
143	0x3e1ac295	0.1511329
144	0x3ddd8b87	0.10817628
145	0xbb59ca1f	-0.0033232046
146	0x3c9fa053	0.019485628
147	0xbdab3492	-0.08359636
148	0xbe01dd8d	-0.12682171
149	0xbefdfa61	-0.49605086
150	0xbeacce7f	-0.33751294
151	0xbeb220f4	-0.34790766
152	0x3e0e2fe2	0.13885453
153	0xbceca784	-0.028888471
154	0x3d882211	0.06647123
155	0xbc8844e0	-0.016634405
156	0xbe424bf2	-0.18974283
157	0xbe6bdb59	-0.23032893
158	0xbf3a439c	-0.72759414
159	0xbea9608a	-0.33081466
160	0x3e544780	0.207304
161	0x3ce4320c	0.027855895
162	0x3d9ec54c	0.07752475
163	0xbdbf1817	-0.09330767
164	0x3b81e15e	0.0039636334
165	0xbeebd918	-0.46064067
166	0xbe053c56	-0.13011298
167	0xbf61e398	-0.88237906
168	0xbe603aec	-0.21897477
169	0xbe5e56bc	-0.21712774
170	0xbe8baede	-0.2728185
171	0x3a6492b8	0.00087193726
172	0xbdde9ff9	-0.10870356
173	0xbeb7c154	-0.35889685
174	0xbe8a98b5	-0.2706963
175	0xbf0d969c	-0.55307937
176	0xbefb95d9	-0.49137762
177	0xbf3db127	-0.7409844
178	0x3ce1db9e	0.027570542
179	0x3e6c5a3c	0.23081297
180	0xbd8668f7	-0.06562989
181	0x3da8b65b	0.082379065
182	0xbd846de9	-0.06466276
183	0x3d14de73	0.036344957
184	0xbd1d4bf2	-0.038402505
185	0x3ca52593	0.020159518
186	0xbd8bec88	-0.06832224
187	0x3e4993c1	0.1968527
188	0xbd2413d9	-0.04005799
189	0xbda3b746	-0.07993941
190	0x3d978cd7	0.0739991
191	0xbcac34dd	-0.0210213
192	0x3e49a69a	0.1969246
193	0x3ec16ece	0.3777985
194	0xbe3b3a29	-0.18283905
195	0x3e42b943	0.19015984
196	0xbd204f00	-0.03913784
197	0xbe557f8b	-0.20849435
198	0x3e525ddd	0.20543619
199	0x3e28d7d5	0.16488583
200	0x3ecf6f8a	0.40514785
201	0x3f7d3819	0.98913723
202	0xbe53a171	-0.20667054
203	0x3e3a3852	0.18185547
204	0x3cddb446	0.0270635
205	0xbd97214a	-0.07379396
206	0x3ebe949e	0.3722276
207	0x3e5b98a9	0.21444954
208	0x3f3ae07f	0.72998804
209	0x3f539e61	0.8266354
210	0xbe0b84d6	-0.13624892
211	0xbe27e090	-0.16394258
212	0xbf1e89b7	-0.61928886
213	0x3e9b3474	0.30313456
214	0xbdc2908b	-0.09500226
215	0x3e242e36	0.16033253
216	0x3e7c7d00	0.24657059
217	0x3dcfeb0f	0.10152256
218	0x3f061c8e	0.5238732
219	0x3d180669	0.03711549
220	0xbf028ff0	-0.5100088
221	0xbe517b33	-0.20457153
222	0xbeb81fa6	-0.35961646
223	0xbdfa00c9	-0.12207181
224	0xbea11337	-0.31459972
225	0xbe348ee0	-0.17632627
226	0xbefccdcd	-0.49375764
227	0xbd09c448	-0.033634454
228	0xbe4b93d8	-0.19880617
229	0xbea80e20	-0.32823277
230	0xbac17a20	-0.0014761128
231	0xbd937462	-0.07199933
232	0x3e2bdf33	0.16784362
233	0xbd233613	-0.03984649
234	0x3e4bcc15	0.1990207
235	0xbe16af6a	-0.14715353
236	0x3dda9f96	0.1067497
237	0xbe8577ee	-0.26068062
238	0x3e44ce51	0.19219328
239	0x3ca8028d	0.020509029
240	0x3de3a849	0.11116082
241	0x3df75715	0.120771565
242	0x3d82f305	0.063940085
243	0x3d80a109	0.06280715
244	0x3e735172	0.23761538
245	0xbe51c90f	-0.20486854
246	0x3e4abc23	0.19798331
247	0x3e0b0dd1	0.1357949
248	0x3d0abf00	0.033873558
249	0x3e998afc	0.2998885
250	0xbc4846d0	-0.012223914
251	0x3e806d1a	0.25083238
252	0xbe848281	-0.25880817
253	0xbcf02990	-0.029316694
254	0x3cd6096d	0.026127541
255	0x3f05b1cd	0.5222443

sequential/dense_1/MatMul f4 [10, 20]
0	0xbf6705c8	-0.90243196
1	0x3ea176ec	0.31536043
2	0x3e8062b9	0.2507532
3	0xbe23f713	-0.1601222
4	0x3f84d312	1.0376914
5	0xbe04f1af	-0.1298282
6	0x3f1cc215	0.61233646
7	0x3eae322c	0.34022653
8	0xbe202e81	-0.1564274
9	0x3f0575da	0.5213295
10	0x3d576e60	0.052595496
11	0x3f29c5fd	0.6631773
12	0xbdfba6b4	-0.122876555
13	0xbe4e1317	-0.2012447
14	0xbf012fd6	-0.50463617
15	0x3e68b0a4	0.22723633
16	0x3e06f1d5	0.13178189
17	0x3e8b6e71	0.27232698
18	0x3e455f50	0.1927464
19	0xbe288d4c	-0.1646015
20	0x3f1153ae	0.5676831
21	0x3f806e6b	1.0033697
22	0x3f1e6d5c	0.6188562
23	0x3f44d5e3	0.76888865
24	0x3f931782	1.1491549
25	0xbbd2e09e	-0.006435468
26	0xbc1b512a	-0.0094798
27	0x3f036982	0.5133287
28	0x3e289528	0.16463149
29	0x3fb939d5	1.4470774
30	0x3e54a980	0.20767784
31	0xbdd81d1c	-0.10552427
32	0xbbf383dd	-0.007431491
33	0x3ec84aa9	0.3911946
34	0x3f006054	0.50146985
35	0x3cb24049	0.02175917
36	0x3f4d44da	0.80183184
37	0x3dcfbbda	0.10143252
38	0x3ed601f2	0.4179836
39	0x3dec0d77	0.11526006
40	0x3f3a1a98	0.7269683
41	0xbe55867a	-0.2085208
42	0x3f06d8cb	0.5267455
43	0x3f25deac	0.64792895
44	0x3e156564	0.14589459
45	0x3f06952b	0.5257136
46	0x3ef6835b	0.4814709
47	0xbd8a0092	-0.0673839
48	0x3dc5f4df	0.09665846
49	0xbdc46014	-0.09588638
50	0x3f0c758b	0.54866856
51	0x3f6b5c18	0.919374
52	0x3c8fa689	0.017535465
53	0x3f4b032f	0.7930173
54	0x3f9813a5	1.1880995
55	0x3f6b0af6	0.918136
56	0x3e5071f5	0.20355971
57	0xbe915285	-0.2838327
58	0xbed933d9	-0.4242237
59	0x3d200e12	0.03907592
60	0x3dea6353	0.11444726
61	0xbd156892	-0.03647668
62	0x3eb6b2e9	0.35683373
63	0x3edb8d0f	0.42881057
64	0x3e0f6594	0.14003593
65	0x3ed065a0	0.40702534
66	0xbeb0d6a2	-0.34538752
67	0x3f72ec27	0.9489159
68	0xbf0893bc	-0.53350425
69	0xbe76195a	-0.24033108
70	0x3dee2029	0.11627228
71	0xbdd75680	-0.105145454
72	0x3f6c0630	0.9219694
73	0x3eb5a432	0.35476834
74	0xbf07d81e	-0.53064144
75	0x3f0e0977	0.5548319
76	0x3ee01baa	0.43771106
77	0x3f93b2c5	1.1538931
78	0x3efdc272	0.49562413
79	0xbeec537f	-0.46157452
80	0x3d1a04c7	0.037602212
81	0x3dce427a	0.10071273
82	0xbf57e4ca	-0.8433348
83	0x3e899780	0.26873398
84	0x3e03a324	0.12855202
85	0x3fa71c18	1.3055449
86	0x3f3b6f15	0.7321637
87	0xbe2313ed	-0.1592557
88	0x3d781418	0.060566038
89	0x3d691c74	0.0569119
90	0x3e059132	0.13043669
91	0x3f70d7d7	0.94079345
92	0x3ef0f956	0.47065228
93	0x3f06e4f0	0.5269308
94	0x3f5702f7	0.839889
95	0x3f611d5a	0.8793541
96	0x3f0b25ae	0.5435437
97	0x3f5afc07	0.85540813
98	0x3dc79f79	0.09747214
99	0x3e6d046c	0.23146218
100	0x3f0461ed	0.5171192
101	0x3f9a9971	1.2078077
102	0x3ceeb29c	0.029137902
103	0xbd914417	-0.07093065
104	0x3f015b23	0.5052969
105	0x3e045fa7	0.12927113
106	0x3f7e2006	0.99267614
107	0x3d98195a	0.074267104
108	0x3fa9a4c5	1.3253409
109	0x3dc14360	0.09436679
110	0x3f68c87f	0.9093093
111	0x3e288761	0.16457893
112	0x3e065395	0.13117822
113	0x3ede3d16	0.4340598
114	0xbe2dba10	-0.16965508
115	0xbe5e50df	-0.21710537
116	0x3ebe9e4c	0.37230146
117	0x3f52c4cb	0.8233153
118	0x3f3b71cb	0.7322051
119	0x3f5f71c8	0.8728299
120	0xbf0bf6eb	-0.5467364
121	0x3f9909d1	1.1956121
122	0xbf00314b	-0.50075215
123	0xbe107c3a	-0.14109889
124	0x3e7aa963	0.24478678
125	0x3f115f1d	0.56785756
126	0x3ae79708	0.0017668912
127	0x3f32e72a	0.6988398
128	0xbe575446	-0.21028242
129	0x3d39ee11	0.045393053
130	0xbd17f638	-0.037100047
131	0xbe248eed	-0.16070147
132	0x3f46cdc9	0.77657753
133	0xbd6e3afa	-0.058161713
134	0xbf2d17f9	-0.67614704
135	0x3c3fcad9	0.0117060775
136	0x3dabd765	0.083906926
137	0x3f1d26fb	0.61387604
138	0x3f7f1fe6	0.9965805
139	0x3de2bce6	0.11071186
140	0x3e389111	0.18024088
141	0x3ee38d71	0.4444385
142	0x3dcc6ae1	0.09981323
143	0xbf22cd9e	-0.63594997
144	0x3f2dadf2	0.67843544
145	0xbe6c5742	-0.23080161
146	0xbd024c7c	-0.031811222
147	0x3e0c1fb5	0.1368397
148	0xbc3c4a42	-0.011492314
149	0x3ed8ef7a	0.42370206
150	0x3e839490	0.25699282
151	0x3f133b90	0.5751276
152	0xbf1b3615	-0.606294
153	0x3d6694c8	0.056294233
154	0x3ef297cd	0.4738144
155	0xbd91f1e1	-0.07126213
156	0xbd856542	-0.06513454
157	0xbe896654	-0.26835883
158	0xbe83120c	-0.25599706
159	0xbd21bded	-0.039487768
160	0x3f0400da	0.515638
161	0xbee4dc66	-0.446994
162	0xbe69fe6a	-0.22850958
163	0x3eab5951	0.3346658
164	0xbf03528f	-0.5129785
165	0x3e079d59	0.13243617
166	0xbeea55b9	-0.45768526
167	0x3da72d05	0.08162884
168	0xbe1520ef	-0.14563344
169	0xbf25001e	-0.64453304
170	0x3ea9e1a1	0.33179954
171	0xbe8916a7	-0.26775095
172	0xbd8f0e9b	-0.06985208
173	0x3f2837bc	0.65710044
174	0x3f621e87	0.8832783
175	0xbea0ea29	-0.3142865
176	0xbe8d9fa7	-0.27660868
177	0xbf7729b4	-0.9654801
178	0xbf1ee3e1	-0.62066466
179	0xbd0f1c33	-0.034939002
180	0xbf829518	-1.020175
181	0xbf5f0b99	-0.8712707
182	0xbf8cc231	-1.0996763
183	0xbf63b6b6	-0.8895067
184	0xbed6dfb7	-0.41967556
185	0x3eb98627	0.36235163
186	0xbe0ce4ba	-0.13759127
187	0xbed54107	-0.41651174
188	0xbedd6692	-0.43242317
189	0xbe65e4e1	-0.22450592
190	0x3e7d8215	0.24756654
191	0x3f3f495a	0.747213
192	0xbd661072	-0.056168027
193	0xbf8350ab	-1.0258993
194	0xbf829f1f	-1.020481
195	0x3d105201	0.035234455
196	0x3ef24eb3	0.47325668
197	0xbd9f2c3c	-0.07772109
198	0xbe396856	-0.18106207
199	0x3eb0bcfb	0.3451918

sequential/dense_2/MatMul f4 [10, 10]
0	0x3e262e7e	0.16228673
1	0x3f3cfbe4	0.73821855
2	0x3eb1b2b5	0.34706655
3	0xbf0f0f87	-0.5588307
4	0x3f065dfc	0.5248716
5	0x3d428566	0.0474905
6	0xbf40fa57	-0.7538199
7	0x3f1eb602	0.6199647
8	0xbe7118bb	-0.2354459
9	0xbea88ff2	-0.32922322
10	0xbee9236f	-0.45534846
11	0x3ea6ec15	0.3260199
12	0xbf1c298d	-0.610009
13	0x3f3b969f	0.73276705
14	0x3f45ebc0	0.7731285
15	0x3f2dff27	0.67967457
16	0x3e3578ff	0.17721938
17	0xbef43575	-0.47697034
18	0xbf28164e	-0.65659034
19	0xbe556c5f	-0.20842122
20	0x3f28004a	0.6562544
21	0xbf9e3dbd	-1.2362591
22	0x3d0d2f7f	0.034469124
23	0xbbc07bb9	-0.005874124
24	0x3f29ca6e	0.6632451
25	0xbe2981dc	-0.16553444
26	0x3f0bf649	0.54672676
27	0x3e61b440	0.22041416
28	0xbd49ee19	-0.049299333
29	0x3f8f4ac3	1.119469
30	0x3ea9b3c7	0.33144972
31	0x3e1343c2	0.14381316
32	0xbd109fc4	-0.035308614
33	0x3f8d5a9e	1.1043279
34	0x3d166732	0.03671951
35	0xbfcd6701	-1.6047059
36	0xbe09aab3	-0.13444023
37	0xbf20a7a7	-0.6275582
38	0xbf23dde7	-0.6401047
39	0xbf0ca341	-0.54936606
40	0x3eac68de	0.33673757
41	0x3e469334	0.19392091
42	0xbfc84ef9	-1.56491
43	0xbcf52ed2	-0.029929552
44	0xbe16c834	-0.14724809
45	0x3ccc123c	0.024911039
46	0x3f53dea9	0.8276163
47	0x3eb4c132	0.35303646
48	0xbead7c35	-0.33883825
49	0xbeec5f16	-0.46166295
50	0xbc0eb1e8	-0.008709408
51	0xbea68b12	-0.32527977
52	0x3dff7b0c	0.12474641
53	0xbf7dc9ba	-0.99135935
54	0xbe2b23da	-0.16712895
55	0x3f501a50	0.8129015
56	0xbf89e1ef	-1.0772074
57	0xbfa996e0	-1.3249168
58	0xbfa9e7ca	-1.3273861
59	0xbf2fab2d	-0.6862057
60	0xbf77dc01	-0.96820074
61	0x3ea47c11	0.32125905
62	0x3e946f9b	0.28991398
63	0x3d0576a3	0.032583844
64	0xbd72ded2	-0.05929453
65	0xbf24ecf3	-0.64424056
66	0xbe887c22	-0.26657206
67	0x3f005ead	0.50144464
68	0x3f56387b	0.8367993
69	0xbf0b7f09	-0.54490715
70	0xbf8880cd	-1.0664307
71	0x3e98c8d2	0.29840714
72	0x3ebf1c7a	0.37326413
73	0xbdbd35ba	-0.09238763
74	0xbd2b8177	-0.041871514
75	0xbeb79024	-0.35852158
76	0xbf3b08fc	-0.73060584
77	0x3e7407db	0.23831122
78	0x3ee55b14	0.4479605
79	0xbe93ea6e	-0.28889793
80	0xbf7dca66	-0.9913696
81	0xbede386a	-0.43402416
82	0x3ea45b35	0.32100835
83	0xbeac3863	-0.3363677
84	0x3f861765	1.047589
85	0xbf97ac78	-1.1849508
86	0xbd53ab92	-0.051677294
87	0xbe4dbbcd	-0.20091172
88	0x3f172d9f	0.5905399
89	0xbec47519	-0.38370588
90	0x3e9fbc35	0.31198278
91	0x3f80dd18	1.0067472
92	0xbfb325df	-1.3995932
93	0x3dacd7be	0.08439587
94	0xbdbe487b	-0.09291168
95	0xbe7b7835	-0.24557574
96	0x3ef4f7ee	0.47845405
97	0xbf1a6dac	-0.60323596
98	0xbdb872bc	-0.09006259
99	0xbebb9b9a	-0.36642152
